…
**Parameter** & **CMNIST** & **C-CIFAR10, BAR** & **BFFHQ** \\ \hline Learning Rate (LR) & \((1.0\times 10^{-3},1.0\times 10^{-3})\) & \((1.0\times 10^{-3},1.0\times 10^{-4})\) & \((1.0\times 10^{-3},1.0\times 10^{-4})\) \\ Batch Size & (64, 64) & (256, 256) & (64, 64) \\ Momentum & 0.9 & 0.9 & 0.9 \\ Weight Decay & \((1.0\times 10^{-3},0)\) & \((1.0\times 10^{-3},0)\) & (0, 0) \\ Epochs & (100, 100) & (100, 200) & (10, 100) \\ \hline \hline \end{tabular}
\end{table}
Table 12: Optimal hyperparameters for the CMNIST, C-CIFAR10, BAR and BFFHQ datasets determined through extensive experimentation. The tuples represent optimal hyperparameters for Stage 1 and Stage 2, respectively.

Figure 5: Samples from training data of CMNIST, Corrupted-CIFAR10 and Biased FFHQ.

(r1): ReLU() (s1): MLPHiddenlayers( (hidden_layers): ModuleList( (0): Linear(in_features=100, out_features=100, bias=True) ) (act): ReLU() ) ) )

#### C-CIFAR10 and BAR:

(shallow branch): Sequential( (c1): Conv2d(3, 32, kernel_size=(5, 5), stride=(1, 1)) (b1): BatchNorm2d(32, eps=1e-05, momentum=0.1, affine=True, track_running_stats=True) (r1): ReLU() (s1): MaxPool2d(kernel_size=(2, 2), stride=2, padding=0, dilation=1, ceil_mode=False) (c2): Conv2d(32, 64, kernel_size=(5, 5), stride=(1, 1)) (b2): BatchNorm2d(64, eps=1e-05, momentum=0.1, affine=True, track_running_stats=True) (r2): ReLU() (s2): MaxPool2d(kernel_size=(2, 2), stride=2, padding=0, dilation=1, ceil_mode=False) (c3): Conv2d(64, 64, kernel_size=(5, 5), stride=(1, 1)) (b3): BatchNorm2d(64, eps=1e-05, momentum=0.1, affine=True, track_running_stats=True) (r3): ReLU() (f1): Flatten(start_dim=1, end_dim=-1) ) (classifier): Linear(in_features=64, out_features=10, bias=True) (act): ReLU()

#### BFFHQ:

(shallow branch): Sequential( (c1): Conv2d(3, 64, kernel_size=(7, 7), stride=(1, 1)) (b1): BatchNorm2d(64, eps=1e-05, momentum=0.1, affine=True, track_running_stats=True) (r1): ReLU(inplace=True) (r1): ReLU(inplace=True) (s1): MaxPool2d(kernel_size=(2, 2), stride=2, padding=0, dilation=1, ceil_mode=False) (c2): Conv2d(64, 128, kernel_size=(3, 3), stride=(1, 1)) (b2): BatchNorm2d(128, eps=1e-05, momentum=0.1, affine=True, track_running_stats=True) (r2): ReLU(inplace=True) (s2): MaxPool2d(kernel_size=(2, 2), stride=2, padding=0, dilation=1, ceil_mode=False) (s3): Conv2d(128, 512, kernel_size=(3, 3), stride=(1, 1)) (s3): MaxPool2d(kernel_size=(2, 2), stride=2, padding=0, dilation=1, ceil_mode=False) (b3): BatchNorm2d(512, eps=1e-05, momentum=0.1, affine=True, track_running_stats=True) (r3): ReLU(inplace=True) (c4): Conv2d(512, 512, kernel_size=(3, 3), stride=(1, 1)) (b4): BatchNorm2d(512, eps=1e-05, momentum=0.1, affine=True, track_running_stats=True) (r4): ReLU(inplace=True) (a1): AdaptiveAvgPool2d(output_size=(1, 1)) (f1): Flatten(start_dim=1, end_dim=-1)

### Limitations & Broader Impact

The primary challenge with this approach is the scalability issue when applied to a multi-bias setting. As the number of bias attributes increases, the subtle variations in linear decodability across the various branches could become so refined that accurately identifying biases may fail to achieve high fidelity. Moreover, depending on the network architecture might compel the model to depend excessively on intricate hyperparameter adjustments.
…
