…
**PropEn mix xy2xy** & \(5.91\pm 8.72\) & \(6.06\pm 7.75\) \\
**PropEn xy2xy** & \(\textbf{55.41}\pm 14.07\) & \(29.81\pm 31.30\) \\ \hline \hline \end{tabular}
\end{table}
Table 5: Diffusion models do improve almost all hold out designs (RI - ratio of improvement), however, only by a very small value (AI-average improvement.)

Figure 9: Airfoils optimized with PropEn from multiple seeds. Red: seed designs, blue: PropEn candidates. To reduce the lift-drag ratio, PropEn tends to flatten the bottom of the airfoil to reduce the drag, while extend the front upwards to increase lift.

Sequential(  (0): Linear(in_features=2, out_features=30, bias=True)  (1): ReLU()  (2): Linear(in_features=30, out_features=30, bias=True)  (3): ReLU()  (4): Linear(in_features=30, out_features=30, bias=True)  (5): ReLU()  (6): Linear(in_features=30, out_features=15, bias=True)  ) )

**Decoder**: Analogous to the encoder, starting with the compressed representation (15 features) and progressively reconstructing the original input size (2 features).

**Toy Example Discriminator:**

Sequential(  (0): Linear(in_features=2, out_features=30, bias=True)  (1): ReLU()  (2): Linear(in_features=30, out_features=30, bias=True)  (3): ReLU()  (4): Linear(in_features=30, out_features=30, bias=True)  (5): ReLU()  (6): Linear(in_features=30, out_features=1, bias=True)  )

**Airfoil**

* ablation studies: \(N\in\{200,500,1000\}\),
* matching thresholds: \(\Delta_{x}=\Delta_{y}\in\{0.3,0.5,0.7,1\}\)
* number of epochs: 1000, batch size: 100

**Criterion**: MSELoss()

**Encoder**:

Sequential(  (0): Linear(in_features=2, out_features=100, bias=True)  (1): ReLU()  (2): Linear(in_features=100, out_features=100, bias=True)  (3): ReLU()  (4): Linear(in_features=100, out_features=100, bias=True)  (5): ReLU()  (6): Linear(in_features=100, out_features=50, bias=True)  )

**Decoder**: Analogous to the encoder, starting with the compressed representation (50 features) and progressively reconstructing the original input size (400 features).

**AirFoil Discriminator:**

Sequential(  (0): Linear(in_features=100, out_features=100, bias=True)  (1): ReLU()  (2): Linear(in_features=100, out_features=100, bias=True)  (3): ReLU()  (4): Linear(in_features=100, out_features=100, bias=True)  (5): ReLU()  (6): Linear(in_features=100, out_features=1, bias=True)Hyper-parameter choice.For optimizing the parameters of the baselines in the toy and engineering experiments, we conducted a grid search over the learning rate ([1e-2, 1e-5]), weight decay ([1e-2, 1e-5]), number of epochs ([300, 1000, 5000]), batch size (32, 64, 128), and number of neurons per layer ([30, 50, 100]).

Therapeutic Proteins
* batch size: 32, training epochs: 300
* matching thresholds: \(\Delta_{x}=\in\{10,15\}\) mutational, edit distance, \(\Delta_{y}=0.5\)
* baselines: For WJS, we used a 1D Conv architecture (please see A.1 in [38]), and for Lambo, a bert-small transformer (please see C.1 in [39]).

Encoder(  (mlp): Linear(in_features=6556, out_features=128, bias=True)  (blocks): ModuleList(  3 x ResNetBlock(  (ln1): LayerNorm((128,), eps=1e-05, elementwise_affine=True)  (mlp1): Linear(in_features=128, out_features=256, bias=True)  (ln2): LayerNorm((256,), eps=1e-05, elementwise_affine=True)  (mlp2): Linear(in_features=256, out_features=128, bias=True)  (act): GELU(approximate='none')  )

Decoder: Analogous to the encoder, starting with the compressed representation (256 features) and progressively reconstructing the original input size (6556).

Comparison to Bayesian Optimization.While both BO and PropEn aim at optimization in small sample sizes, the two frameworks solve different problems. The goal
…
