…
Table 8: Cost of different algorithms on the Pendulum swingup tasks from Amos et al. As in Amos et al., we test in two settings, pendulum without damping and with damping. Lower cost means the better performance. DiffTORI performs slightly worse in the no damping case but noticeably better in the damping case.

theseus_inputs = {"actions":init_actions, "obs":obs}  updated_inputs,info = theseus_optim.forward(theseus_inputs)  updated_actions = updated_inputs['actions']  # Updatemodelusingpolicygradientloss  a_loss = - torch.min(*self.model.Q_s(obs,updated_actions[0]))*c0  a_loss.backward()  optim_a.step()

-For model-based reinforcement learning, We provide the network details for the added networks we used upon TD-MPC, which are the twin Q networks \(\tilde{Q}_{\phi}\) learned in the original state space for computing the deterministic policy gradient.

(Q_s1): Sequential(  (0): Linear(in_features=S,out_features=256)  (1): ELU(alpha=1.0)  (2): Linear(in_features=256,out_features=Z))  (3): Linear(in_features=Z+A,out_features=512)  (4): LayerNorm((512,),elementwise_affine=True)  (5): Tanh()  (6): Linear(in_features=512,out_features=512)  (7): ELU(alpha=1.0)  (8): Linear(in_features=512,out_features=1)) (Q_s2): Sequential(  (0): Linear(in_features=S,out_features=256)  (1): ELU(alpha=1.0)  (2): Linear(in_features=256,out_features=Z))  (3): Linear(in_features=Z+A,out_features=512)  (4): LayerNorm((512,),elementwise_affine=True)  (5): Tanh()  (6): Linear(in_features=512,out_features=512)  (7): ELU(alpha=1.0)  (8): Linear(in_features=512,out_features=1))

For Imitation Learning, The default network details are as follows. Note that for Robomimic [19] and Push-T tasks, we use the RNN-encoder from Robomimic; for ManiSkill [20; 21] tasks, we use the PointNet encoder from ManiSkill2 [21].

(ho): Sequential(  (0): Linear(in_features=S,out_features=256)  (1): ELU(alpha=1.0)  (2): Linear(in_features=256,out_features=256)  (3): ELU(alpha=1.0)  (4): Linear(in_features=256,out_features=Zs)) (ha): Identity(hl): Sequential(  (0): Linear(in_features=Zs+A,out_features=256)  (1): ELU(alpha=1.0)  (2): Linear(in_features=256,out_features=256)  (3): ELU(alpha=1.0)  (4): Linear(in_features=256,out_features=128)) (R): Sequential(  (0): Linear(in_features=Zs+A+64,out_features=512)  (1): ELU(alpha=1.0)  (2): Linear(in_features=512,out_features=512)  (3): ELU(alpha=1.0)  (4): Linear(in_features=512,out_features=1)) (d): Sequential(  (0): Linear(in_features=Zs+A+64,out_features=512)  (1): ELU(alpha=1.0)  (2): Linear(in_features=512,out_features=512)

[MISSING_PAGE_FAIL:20]

The latent state \(z\) will then be used as input for the decoder, which consists of the reward function \(R_{\theta}\), and the dynamics function \(d_{\theta}\). Trajectory optimization is performed with the reward and dynamics function in the decoder to solve (7) to generate the reconstructed action \(a^{*}(\theta;s_{i})\). The loss for training the CVAE is the evidence lower bound (ELBO) on the demonstration data:
…
