…
**Run time and memory usage** Table 3 presents the computation costs, including run time and memory usage, for each method using GTX 1080 Ti. It is worth noting that IBP-Ex has significantly less run time and memory usage compared to PGD-Ex, with a 10-fold reduction in run time and a 2.5-fold reduction in memory usage. Considering that PGD-Ex and IBP-Ex have similar performance in terms of worst group accuracy, as shown in Table 5, IBP-Ex+Grad-Reg appears to be comparably effective and efficient for model modification. Additionally, the combined method IBP-Ex+Grad-Reg, which presents the best performance in terms of averaged and worst group accuracy compared to PGD-Ex, also has a 3-fold reduction in run time and a 2-fold reduction in memory usage compared to PGD-Ex.

### Network Architecture

**Model architecture on the decoy-MNIST dataset**

Sequential(  (0): Conv2d(3, 32, kernel_size=(3, 3), stride=(1, 1), padding=(1, 1))  (1): ReLU()  (2): Conv2d(32, 32, kernel_size=(4, 4), stride=(2, 2), padding=(1, 1))  (3): ReLU()  (4): Conv2d(32, 64, kernel_size=(3, 3), stride=(1, 1), padding=(1, 1))  (5): ReLU()  (6): Conv2d(64, 64, kernel_size=(4, 4), stride=(2, 2), padding=(1, 1))  (7): ReLU()  (8): Flatten(start_dim=1, end_dim=-1)  (9): Linear(in_features=200704, out_features=1024, bias=True)  (10): ReLU()  (11): Linear(in_features=1024, out_features=1024, bias=True)  (12): ReLU()  (13): Linear(in_features=1024, out_features=2, bias=True)  )

**Model architecture on the ISIC dataset**

Sequential(  (0): Flatten(start_dim=1, end_dim=-1)  (1): Linear(in_features=2352, out_features=512, bias=True)  (2): ReLU()  (3): Linear(in_features=512, out_features=512, bias=True)  (4): ReLU()  (5): Linear(in_features=512, out_features=512, bias=True)  (6): ReLU()  (7): Linear(in_features=512, out_features=10, bias=True)  )

**Model architecture on the Plant phenotyping dataset**

Sequential(  (0): Conv2d(3, 32, kernel_size=(3, 3), stride=(1, 1), padding=(1, 1))  (1): ReLU()  (2): Conv2d(32, 32, kernel_size=(4, 4), stride=(2, 2), padding=(1, 1))  (3): ReLU()  (4): Conv2d(32, 64, kernel_size=(3, 3), stride=(1, 1), padding=(1, 1))  (5): ReLU()  (6): Conv2d(64, 64, kernel_size=(4, 4), stride=(2, 2), padding=(1, 1))

\begin{table}
\begin{tabular}{|c|c|c|c|c|} \hline \multicolumn{1}{|c|}{Grad-Reg} & PGD-Ex & IBP-Ex & IBP-Ex+Grad-Reg & PGD-Ex+Grad-Reg \\ \hline \(\times\)2.3 & \(\times\)4.9 & \(\times\)2.2 & \(\times\)3.5 & \(\times\) 7.0 \\ \hline \end{tabular}
\end{table}
Table 3: Running time in comparison to ERM on the ISIC dataset(7): ReLU()  (8): Flatten(start_dim=1, end_dim=-1)  (9): Linear(in_features=200704, out_features=1024, bias=True)  (10): ReLU()  (11): Linear(in_features=1024, out_features=1024, bias=True)  (12): ReLU()  (13): Linear(in_features=1024, out_features=2, bias=True)  ) }

## Appendix F Additional Results

### Standard deviations

We repeated all our experiments on Decoy-MNIST, Plant and ISIC dataset three times and report the mean and standard deviation in Table 4. Similarly, we report in Table 5, the standard deviations for the corresponding Table 2 of the main paper.

### Additional results on Salient-Imagenet

In Table 6, we show average accuracy and accuracy when noise (drawn from standard normal) is added to spurious or irrelevant regions (N-Acc column). We observe that for PGD-Ex + Grad-Reg, the accuracy did not diminish by much when noise is added to the spurious region.
…
